{
    "modelTopology": {
        "node": [
            {
                "name": "ConstantFolding/truediv_recip",
                "op": "Const",
                "attr": {
                    "value": {
                        "tensor": {
                            "dtype": "DT_FLOAT",
                            "tensorShape": {}
                        }
                    },
                    "dtype": {
                        "type": "DT_FLOAT"
                    }
                }
            },
            {
                "name": "ConstantFolding/truediv_1_recip",
                "op": "Const",
                "attr": {
                    "dtype": {
                        "type": "DT_FLOAT"
                    },
                    "value": {
                        "tensor": {
                            "dtype": "DT_FLOAT",
                            "tensorShape": {}
                        }
                    }
                }
            },
            {
                "name": "detector/yolo-v4-tiny/Reshape_3",
                "op": "Const",
                "attr": {
                    "dtype": {
                        "type": "DT_FLOAT"
                    },
                    "value": {
                        "tensor": {
                            "dtype": "DT_FLOAT",
                            "tensorShape": {
                                "dim": [
                                    {
                                        "size": "1"
                                    },
                                    {
                                        "size": "507"
                                    },
                                    {
                                        "size": "2"
                                    }
                                ]
                            }
                        }
                    }
                }
            },
            {
                "name": "detector/yolo-v4-tiny/mul/y",
                "op": "Const",
                "attr": {
                    "value": {
                        "tensor": {
                            "dtype": "DT_FLOAT",
                            "tensorShape": {
                                "dim": [
                                    {
                                        "size": "2"
                                    }
                                ]
                            }
                        }
                    },
                    "dtype": {
                        "type": "DT_FLOAT"
                    }
                }
            },
            {
                "name": "detector/yolo-v4-tiny/mul_1",
                "op": "Const",
                "attr": {
                    "dtype": {
                        "type": "DT_FLOAT"
                    },
                    "value": {
                        "tensor": {
                            "dtype": "DT_FLOAT",
                            "tensorShape": {
                                "dim": [
                                    {
                                        "size": "507"
                                    },
                                    {
                                        "size": "2"
                                    }
                                ]
                            }
                        }
                    }
                }
            },
            {
                "name": "detector/yolo-v4-tiny/Conv_17/weights",
                "op": "Const",
                "attr": {
                    "dtype": {
                        "type": "DT_FLOAT"
                    },
                    "value": {
                        "tensor": {
                            "dtype": "DT_FLOAT",
                            "tensorShape": {
                                "dim": [
                                    {
                                        "size": "1"
                                    },
                                    {
                                        "size": "1"
                                    },
                                    {
                                        "size": "512"
                                    },
                                    {
                                        "size": "30"
                                    }
                                ]
                            }
                        }
                    }
                }
            },
            {
                "name": "detector/yolo-v4-tiny/Conv_17/biases",
                "op": "Const",
                "attr": {
                    "value": {
                        "tensor": {
                            "dtype": "DT_FLOAT",
                            "tensorShape": {
                                "dim": [
                                    {
                                        "size": "30"
                                    }
                                ]
                            }
                        }
                    },
                    "dtype": {
                        "type": "DT_FLOAT"
                    }
                }
            },
            {
                "name": "detector/yolo-v4-tiny/Reshape/shape",
                "op": "Const",
                "attr": {
                    "dtype": {
                        "type": "DT_INT32"
                    },
                    "value": {
                        "tensor": {
                            "dtype": "DT_INT32",
                            "tensorShape": {
                                "dim": [
                                    {
                                        "size": "3"
                                    }
                                ]
                            }
                        }
                    }
                }
            },
            {
                "name": "detector/yolo-v4-tiny/Const",
                "op": "Const",
                "attr": {
                    "value": {
                        "tensor": {
                            "dtype": "DT_INT32",
                            "tensorShape": {
                                "dim": [
                                    {
                                        "size": "4"
                                    }
                                ]
                            }
                        }
                    },
                    "dtype": {
                        "type": "DT_INT32"
                    }
                }
            },
            {
                "name": "detector/yolo-v4-tiny/split/split_dim",
                "op": "Const",
                "attr": {
                    "dtype": {
                        "type": "DT_INT32"
                    },
                    "value": {
                        "tensor": {
                            "dtype": "DT_INT32",
                            "tensorShape": {}
                        }
                    }
                }
            },
            {
                "name": "detector/yolo-v4-tiny/concat_8/axis",
                "op": "Const",
                "attr": {
                    "value": {
                        "tensor": {
                            "dtype": "DT_INT32",
                            "tensorShape": {}
                        }
                    },
                    "dtype": {
                        "type": "DT_INT32"
                    }
                }
            },
            {
                "name": "detector/yolo-v4-tiny/Reshape_7",
                "op": "Const",
                "attr": {
                    "dtype": {
                        "type": "DT_FLOAT"
                    },
                    "value": {
                        "tensor": {
                            "dtype": "DT_FLOAT",
                            "tensorShape": {
                                "dim": [
                                    {
                                        "size": "1"
                                    },
                                    {
                                        "size": "2028"
                                    },
                                    {
                                        "size": "2"
                                    }
                                ]
                            }
                        }
                    }
                }
            },
            {
                "name": "detector/yolo-v4-tiny/mul_3/y",
                "op": "Const",
                "attr": {
                    "dtype": {
                        "type": "DT_FLOAT"
                    },
                    "value": {
                        "tensor": {
                            "dtype": "DT_FLOAT",
                            "tensorShape": {
                                "dim": [
                                    {
                                        "size": "2"
                                    }
                                ]
                            }
                        }
                    }
                }
            },
            {
                "name": "detector/yolo-v4-tiny/mul_4",
                "op": "Const",
                "attr": {
                    "dtype": {
                        "type": "DT_FLOAT"
                    },
                    "value": {
                        "tensor": {
                            "dtype": "DT_FLOAT",
                            "tensorShape": {
                                "dim": [
                                    {
                                        "size": "2028"
                                    },
                                    {
                                        "size": "2"
                                    }
                                ]
                            }
                        }
                    }
                }
            },
            {
                "name": "inputs",
                "op": "Placeholder",
                "attr": {
                    "dtype": {
                        "type": "DT_FLOAT"
                    },
                    "shape": {
                        "shape": {
                            "dim": [
                                {
                                    "size": "-1"
                                },
                                {
                                    "size": "416"
                                },
                                {
                                    "size": "416"
                                },
                                {
                                    "size": "3"
                                }
                            ]
                        }
                    }
                }
            },
            {
                "name": "ConstantFolding/detector/truediv_recip",
                "op": "Const",
                "attr": {
                    "value": {
                        "tensor": {
                            "dtype": "DT_FLOAT",
                            "tensorShape": {}
                        }
                    },
                    "dtype": {
                        "type": "DT_FLOAT"
                    }
                }
            },
            {
                "name": "detector/yolo-v4-tiny/Pad/paddings",
                "op": "Const",
                "attr": {
                    "value": {
                        "tensor": {
                            "dtype": "DT_INT32",
                            "tensorShape": {
                                "dim": [
                                    {
                                        "size": "4"
                                    },
                                    {
                                        "size": "2"
                                    }
                                ]
                            }
                        }
                    },
                    "dtype": {
                        "type": "DT_INT32"
                    }
                }
            },
            {
                "name": "detector/yolo-v4-tiny/Pad_1/paddings",
                "op": "Const",
                "attr": {
                    "dtype": {
                        "type": "DT_INT32"
                    },
                    "value": {
                        "tensor": {
                            "dtype": "DT_INT32",
                            "tensorShape": {
                                "dim": [
                                    {
                                        "size": "4"
                                    },
                                    {
                                        "size": "2"
                                    }
                                ]
                            }
                        }
                    }
                }
            },
            {
                "name": "detector/yolo-v4-tiny/strided_slice/stack",
                "op": "Const",
                "attr": {
                    "value": {
                        "tensor": {
                            "dtype": "DT_INT32",
                            "tensorShape": {
                                "dim": [
                                    {
                                        "size": "4"
                                    }
                                ]
                            }
                        }
                    },
                    "dtype": {
                        "type": "DT_INT32"
                    }
                }
            },
            {
                "name": "detector/yolo-v4-tiny/strided_slice/stack_1",
                "op": "Const",
                "attr": {
                    "value": {
                        "tensor": {
                            "dtype": "DT_INT32",
                            "tensorShape": {
                                "dim": [
                                    {
                                        "size": "4"
                                    }
                                ]
                            }
                        }
                    },
                    "dtype": {
                        "type": "DT_INT32"
                    }
                }
            },
            {
                "name": "detector/yolo-v4-tiny/strided_slice/stack_2",
                "op": "Const",
                "attr": {
                    "dtype": {
                        "type": "DT_INT32"
                    },
                    "value": {
                        "tensor": {
                            "dtype": "DT_INT32",
                            "tensorShape": {
                                "dim": [
                                    {
                                        "size": "4"
                                    }
                                ]
                            }
                        }
                    }
                }
            },
            {
                "name": "detector/yolo-v4-tiny/concat/axis",
                "op": "Const",
                "attr": {
                    "dtype": {
                        "type": "DT_INT32"
                    },
                    "value": {
                        "tensor": {
                            "dtype": "DT_INT32",
                            "tensorShape": {}
                        }
                    }
                }
            },
            {
                "name": "detector/yolo-v4-tiny/concat_1/axis",
                "op": "Const",
                "attr": {
                    "value": {
                        "tensor": {
                            "dtype": "DT_INT32",
                            "tensorShape": {}
                        }
                    },
                    "dtype": {
                        "type": "DT_INT32"
                    }
                }
            },
            {
                "name": "detector/yolo-v4-tiny/strided_slice_1/stack",
                "op": "Const",
                "attr": {
                    "dtype": {
                        "type": "DT_INT32"
                    },
                    "value": {
                        "tensor": {
                            "dtype": "DT_INT32",
                            "tensorShape": {
                                "dim": [
                                    {
                                        "size": "4"
                                    }
                                ]
                            }
                        }
                    }
                }
            },
            {
                "name": "detector/yolo-v4-tiny/strided_slice_1/stack_1",
                "op": "Const",
                "attr": {
                    "dtype": {
                        "type": "DT_INT32"
                    },
                    "value": {
                        "tensor": {
                            "dtype": "DT_INT32",
                            "tensorShape": {
                                "dim": [
                                    {
                                        "size": "4"
                                    }
                                ]
                            }
                        }
                    }
                }
            },
            {
                "name": "detector/yolo-v4-tiny/strided_slice_1/stack_2",
                "op": "Const",
                "attr": {
                    "dtype": {
                        "type": "DT_INT32"
                    },
                    "value": {
                        "tensor": {
                            "dtype": "DT_INT32",
                            "tensorShape": {
                                "dim": [
                                    {
                                        "size": "4"
                                    }
                                ]
                            }
                        }
                    }
                }
            },
            {
                "name": "detector/yolo-v4-tiny/concat_2/axis",
                "op": "Const",
                "attr": {
                    "dtype": {
                        "type": "DT_INT32"
                    },
                    "value": {
                        "tensor": {
                            "dtype": "DT_INT32",
                            "tensorShape": {}
                        }
                    }
                }
            },
            {
                "name": "detector/yolo-v4-tiny/concat_3/axis",
                "op": "Const",
                "attr": {
                    "dtype": {
                        "type": "DT_INT32"
                    },
                    "value": {
                        "tensor": {
                            "dtype": "DT_INT32",
                            "tensorShape": {}
                        }
                    }
                }
            },
            {
                "name": "detector/yolo-v4-tiny/strided_slice_2/stack",
                "op": "Const",
                "attr": {
                    "dtype": {
                        "type": "DT_INT32"
                    },
                    "value": {
                        "tensor": {
                            "dtype": "DT_INT32",
                            "tensorShape": {
                                "dim": [
                                    {
                                        "size": "4"
                                    }
                                ]
                            }
                        }
                    }
                }
            },
            {
                "name": "detector/yolo-v4-tiny/strided_slice_2/stack_1",
                "op": "Const",
                "attr": {
                    "value": {
                        "tensor": {
                            "dtype": "DT_INT32",
                            "tensorShape": {
                                "dim": [
                                    {
                                        "size": "4"
                                    }
                                ]
                            }
                        }
                    },
                    "dtype": {
                        "type": "DT_INT32"
                    }
                }
            },
            {
                "name": "detector/yolo-v4-tiny/strided_slice_2/stack_2",
                "op": "Const",
                "attr": {
                    "value": {
                        "tensor": {
                            "dtype": "DT_INT32",
                            "tensorShape": {
                                "dim": [
                                    {
                                        "size": "4"
                                    }
                                ]
                            }
                        }
                    },
                    "dtype": {
                        "type": "DT_INT32"
                    }
                }
            },
            {
                "name": "detector/yolo-v4-tiny/concat_4/axis",
                "op": "Const",
                "attr": {
                    "value": {
                        "tensor": {
                            "dtype": "DT_INT32",
                            "tensorShape": {}
                        }
                    },
                    "dtype": {
                        "type": "DT_INT32"
                    }
                }
            },
            {
                "name": "detector/yolo-v4-tiny/concat_5/axis",
                "op": "Const",
                "attr": {
                    "dtype": {
                        "type": "DT_INT32"
                    },
                    "value": {
                        "tensor": {
                            "dtype": "DT_INT32",
                            "tensorShape": {}
                        }
                    }
                }
            },
            {
                "name": "detector/yolo-v4-tiny/ResizeNearestNeighbor/size",
                "op": "Const",
                "attr": {
                    "value": {
                        "tensor": {
                            "dtype": "DT_INT32",
                            "tensorShape": {
                                "dim": [
                                    {
                                        "size": "2"
                                    }
                                ]
                            }
                        }
                    },
                    "dtype": {
                        "type": "DT_INT32"
                    }
                }
            },
            {
                "name": "detector/yolo-v4-tiny/concat_9/axis",
                "op": "Const",
                "attr": {
                    "dtype": {
                        "type": "DT_INT32"
                    },
                    "value": {
                        "tensor": {
                            "dtype": "DT_INT32",
                            "tensorShape": {}
                        }
                    }
                }
            },
            {
                "name": "detector/yolo-v4-tiny/Conv_20/weights",
                "op": "Const",
                "attr": {
                    "dtype": {
                        "type": "DT_FLOAT"
                    },
                    "value": {
                        "tensor": {
                            "dtype": "DT_FLOAT",
                            "tensorShape": {
                                "dim": [
                                    {
                                        "size": "1"
                                    },
                                    {
                                        "size": "1"
                                    },
                                    {
                                        "size": "256"
                                    },
                                    {
                                        "size": "30"
                                    }
                                ]
                            }
                        }
                    }
                }
            },
            {
                "name": "detector/yolo-v4-tiny/Conv_20/biases",
                "op": "Const",
                "attr": {
                    "dtype": {
                        "type": "DT_FLOAT"
                    },
                    "value": {
                        "tensor": {
                            "dtype": "DT_FLOAT",
                            "tensorShape": {
                                "dim": [
                                    {
                                        "size": "30"
                                    }
                                ]
                            }
                        }
                    }
                }
            },
            {
                "name": "detector/yolo-v4-tiny/Reshape_4/shape",
                "op": "Const",
                "attr": {
                    "dtype": {
                        "type": "DT_INT32"
                    },
                    "value": {
                        "tensor": {
                            "dtype": "DT_INT32",
                            "tensorShape": {
                                "dim": [
                                    {
                                        "size": "3"
                                    }
                                ]
                            }
                        }
                    }
                }
            },
            {
                "name": "detector/yolo-v4-tiny/Const_1",
                "op": "Const",
                "attr": {
                    "dtype": {
                        "type": "DT_INT32"
                    },
                    "value": {
                        "tensor": {
                            "dtype": "DT_INT32",
                            "tensorShape": {
                                "dim": [
                                    {
                                        "size": "4"
                                    }
                                ]
                            }
                        }
                    }
                }
            },
            {
                "name": "detector/yolo-v4-tiny/split_1/split_dim",
                "op": "Const",
                "attr": {
                    "dtype": {
                        "type": "DT_INT32"
                    },
                    "value": {
                        "tensor": {
                            "dtype": "DT_INT32",
                            "tensorShape": {}
                        }
                    }
                }
            },
            {
                "name": "detector/yolo-v4-tiny/concat_12/axis",
                "op": "Const",
                "attr": {
                    "dtype": {
                        "type": "DT_INT32"
                    },
                    "value": {
                        "tensor": {
                            "dtype": "DT_INT32",
                            "tensorShape": {}
                        }
                    }
                }
            },
            {
                "name": "detector/yolo-v4-tiny/concat_13/axis",
                "op": "Const",
                "attr": {
                    "dtype": {
                        "type": "DT_INT32"
                    },
                    "value": {
                        "tensor": {
                            "dtype": "DT_INT32",
                            "tensorShape": {}
                        }
                    }
                }
            },
            {
                "name": "Const",
                "op": "Const",
                "attr": {
                    "dtype": {
                        "type": "DT_INT32"
                    },
                    "value": {
                        "tensor": {
                            "dtype": "DT_INT32",
                            "tensorShape": {
                                "dim": [
                                    {
                                        "size": "5"
                                    }
                                ]
                            }
                        }
                    }
                }
            },
            {
                "name": "split/split_dim",
                "op": "Const",
                "attr": {
                    "value": {
                        "tensor": {
                            "dtype": "DT_INT32",
                            "tensorShape": {}
                        }
                    },
                    "dtype": {
                        "type": "DT_INT32"
                    }
                }
            },
            {
                "name": "output_boxes/axis",
                "op": "Const",
                "attr": {
                    "value": {
                        "tensor": {
                            "dtype": "DT_INT32",
                            "tensorShape": {}
                        }
                    },
                    "dtype": {
                        "type": "DT_INT32"
                    }
                }
            },
            {
                "name": "detector/yolo-v4-tiny/Conv/Conv2D_weights",
                "op": "Const",
                "attr": {
                    "value": {
                        "tensor": {
                            "dtype": "DT_FLOAT",
                            "tensorShape": {
                                "dim": [
                                    {
                                        "size": "3"
                                    },
                                    {
                                        "size": "3"
                                    },
                                    {
                                        "size": "3"
                                    },
                                    {
                                        "size": "32"
                                    }
                                ]
                            }
                        }
                    },
                    "dtype": {
                        "type": "DT_FLOAT"
                    }
                }
            },
            {
                "name": "detector/yolo-v4-tiny/Conv/Conv2D_bn_offset",
                "op": "Const",
                "attr": {
                    "value": {
                        "tensor": {
                            "dtype": "DT_FLOAT",
                            "tensorShape": {
                                "dim": [
                                    {
                                        "size": "32"
                                    }
                                ]
                            }
                        }
                    },
                    "dtype": {
                        "type": "DT_FLOAT"
                    }
                }
            },
            {
                "name": "detector/yolo-v4-tiny/Conv_1/Conv2D_weights",
                "op": "Const",
                "attr": {
                    "dtype": {
                        "type": "DT_FLOAT"
                    },
                    "value": {
                        "tensor": {
                            "dtype": "DT_FLOAT",
                            "tensorShape": {
                                "dim": [
                                    {
                                        "size": "3"
                                    },
                                    {
                                        "size": "3"
                                    },
                                    {
                                        "size": "32"
                                    },
                                    {
                                        "size": "64"
                                    }
                                ]
                            }
                        }
                    }
                }
            },
            {
                "name": "detector/yolo-v4-tiny/Conv_1/Conv2D_bn_offset",
                "op": "Const",
                "attr": {
                    "dtype": {
                        "type": "DT_FLOAT"
                    },
                    "value": {
                        "tensor": {
                            "dtype": "DT_FLOAT",
                            "tensorShape": {
                                "dim": [
                                    {
                                        "size": "64"
                                    }
                                ]
                            }
                        }
                    }
                }
            },
            {
                "name": "detector/yolo-v4-tiny/Conv_2/Conv2D_weights",
                "op": "Const",
                "attr": {
                    "dtype": {
                        "type": "DT_FLOAT"
                    },
                    "value": {
                        "tensor": {
                            "dtype": "DT_FLOAT",
                            "tensorShape": {
                                "dim": [
                                    {
                                        "size": "3"
                                    },
                                    {
                                        "size": "3"
                                    },
                                    {
                                        "size": "64"
                                    },
                                    {
                                        "size": "64"
                                    }
                                ]
                            }
                        }
                    }
                }
            },
            {
                "name": "detector/yolo-v4-tiny/Conv_2/Conv2D_bn_offset",
                "op": "Const",
                "attr": {
                    "dtype": {
                        "type": "DT_FLOAT"
                    },
                    "value": {
                        "tensor": {
                            "dtype": "DT_FLOAT",
                            "tensorShape": {
                                "dim": [
                                    {
                                        "size": "64"
                                    }
                                ]
                            }
                        }
                    }
                }
            },
            {
                "name": "detector/yolo-v4-tiny/Conv_3/Conv2D_weights",
                "op": "Const",
                "attr": {
                    "dtype": {
                        "type": "DT_FLOAT"
                    },
                    "value": {
                        "tensor": {
                            "dtype": "DT_FLOAT",
                            "tensorShape": {
                                "dim": [
                                    {
                                        "size": "3"
                                    },
                                    {
                                        "size": "3"
                                    },
                                    {
                                        "size": "32"
                                    },
                                    {
                                        "size": "32"
                                    }
                                ]
                            }
                        }
                    }
                }
            },
            {
                "name": "detector/yolo-v4-tiny/Conv_3/Conv2D_bn_offset",
                "op": "Const",
                "attr": {
                    "dtype": {
                        "type": "DT_FLOAT"
                    },
                    "value": {
                        "tensor": {
                            "dtype": "DT_FLOAT",
                            "tensorShape": {
                                "dim": [
                                    {
                                        "size": "32"
                                    }
                                ]
                            }
                        }
                    }
                }
            },
            {
                "name": "detector/yolo-v4-tiny/Conv_18/Conv2D_weights",
                "op": "Const",
                "attr": {
                    "value": {
                        "tensor": {
                            "dtype": "DT_FLOAT",
                            "tensorShape": {
                                "dim": [
                                    {
                                        "size": "1"
                                    },
                                    {
                                        "size": "1"
                                    },
                                    {
                                        "size": "256"
                                    },
                                    {
                                        "size": "128"
                                    }
                                ]
                            }
                        }
                    },
                    "dtype": {
                        "type": "DT_FLOAT"
                    }
                }
            },
            {
                "name": "detector/yolo-v4-tiny/Conv_4/Conv2D_weights",
                "op": "Const",
                "attr": {
                    "value": {
                        "tensor": {
                            "dtype": "DT_FLOAT",
                            "tensorShape": {
                                "dim": [
                                    {
                                        "size": "3"
                                    },
                                    {
                                        "size": "3"
                                    },
                                    {
                                        "size": "32"
                                    },
                                    {
                                        "size": "32"
                                    }
                                ]
                            }
                        }
                    },
                    "dtype": {
                        "type": "DT_FLOAT"
                    }
                }
            },
            {
                "name": "detector/yolo-v4-tiny/Conv_4/Conv2D_bn_offset",
                "op": "Const",
                "attr": {
                    "value": {
                        "tensor": {
                            "dtype": "DT_FLOAT",
                            "tensorShape": {
                                "dim": [
                                    {
                                        "size": "32"
                                    }
                                ]
                            }
                        }
                    },
                    "dtype": {
                        "type": "DT_FLOAT"
                    }
                }
            },
            {
                "name": "detector/yolo-v4-tiny/Conv_18/Conv2D_bn_offset",
                "op": "Const",
                "attr": {
                    "dtype": {
                        "type": "DT_FLOAT"
                    },
                    "value": {
                        "tensor": {
                            "dtype": "DT_FLOAT",
                            "tensorShape": {
                                "dim": [
                                    {
                                        "size": "128"
                                    }
                                ]
                            }
                        }
                    }
                }
            },
            {
                "name": "detector/yolo-v4-tiny/Conv_5/Conv2D_weights",
                "op": "Const",
                "attr": {
                    "value": {
                        "tensor": {
                            "dtype": "DT_FLOAT",
                            "tensorShape": {
                                "dim": [
                                    {
                                        "size": "1"
                                    },
                                    {
                                        "size": "1"
                                    },
                                    {
                                        "size": "64"
                                    },
                                    {
                                        "size": "64"
                                    }
                                ]
                            }
                        }
                    },
                    "dtype": {
                        "type": "DT_FLOAT"
                    }
                }
            },
            {
                "name": "detector/yolo-v4-tiny/Conv_5/Conv2D_bn_offset",
                "op": "Const",
                "attr": {
                    "value": {
                        "tensor": {
                            "dtype": "DT_FLOAT",
                            "tensorShape": {
                                "dim": [
                                    {
                                        "size": "64"
                                    }
                                ]
                            }
                        }
                    },
                    "dtype": {
                        "type": "DT_FLOAT"
                    }
                }
            },
            {
                "name": "detector/yolo-v4-tiny/Conv_6/Conv2D_weights",
                "op": "Const",
                "attr": {
                    "dtype": {
                        "type": "DT_FLOAT"
                    },
                    "value": {
                        "tensor": {
                            "dtype": "DT_FLOAT",
                            "tensorShape": {
                                "dim": [
                                    {
                                        "size": "3"
                                    },
                                    {
                                        "size": "3"
                                    },
                                    {
                                        "size": "128"
                                    },
                                    {
                                        "size": "128"
                                    }
                                ]
                            }
                        }
                    }
                }
            },
            {
                "name": "detector/yolo-v4-tiny/Conv_6/Conv2D_bn_offset",
                "op": "Const",
                "attr": {
                    "value": {
                        "tensor": {
                            "dtype": "DT_FLOAT",
                            "tensorShape": {
                                "dim": [
                                    {
                                        "size": "128"
                                    }
                                ]
                            }
                        }
                    },
                    "dtype": {
                        "type": "DT_FLOAT"
                    }
                }
            },
            {
                "name": "detector/yolo-v4-tiny/Conv_7/Conv2D_weights",
                "op": "Const",
                "attr": {
                    "value": {
                        "tensor": {
                            "dtype": "DT_FLOAT",
                            "tensorShape": {
                                "dim": [
                                    {
                                        "size": "3"
                                    },
                                    {
                                        "size": "3"
                                    },
                                    {
                                        "size": "64"
                                    },
                                    {
                                        "size": "64"
                                    }
                                ]
                            }
                        }
                    },
                    "dtype": {
                        "type": "DT_FLOAT"
                    }
                }
            },
            {
                "name": "detector/yolo-v4-tiny/Conv_19/Conv2D_weights",
                "op": "Const",
                "attr": {
                    "dtype": {
                        "type": "DT_FLOAT"
                    },
                    "value": {
                        "tensor": {
                            "dtype": "DT_FLOAT",
                            "tensorShape": {
                                "dim": [
                                    {
                                        "size": "3"
                                    },
                                    {
                                        "size": "3"
                                    },
                                    {
                                        "size": "384"
                                    },
                                    {
                                        "size": "256"
                                    }
                                ]
                            }
                        }
                    }
                }
            },
            {
                "name": "detector/yolo-v4-tiny/Conv_7/Conv2D_bn_offset",
                "op": "Const",
                "attr": {
                    "value": {
                        "tensor": {
                            "dtype": "DT_FLOAT",
                            "tensorShape": {
                                "dim": [
                                    {
                                        "size": "64"
                                    }
                                ]
                            }
                        }
                    },
                    "dtype": {
                        "type": "DT_FLOAT"
                    }
                }
            },
            {
                "name": "detector/yolo-v4-tiny/Conv_8/Conv2D_weights",
                "op": "Const",
                "attr": {
                    "value": {
                        "tensor": {
                            "dtype": "DT_FLOAT",
                            "tensorShape": {
                                "dim": [
                                    {
                                        "size": "3"
                                    },
                                    {
                                        "size": "3"
                                    },
                                    {
                                        "size": "64"
                                    },
                                    {
                                        "size": "64"
                                    }
                                ]
                            }
                        }
                    },
                    "dtype": {
                        "type": "DT_FLOAT"
                    }
                }
            },
            {
                "name": "detector/yolo-v4-tiny/Conv_19/Conv2D_bn_offset",
                "op": "Const",
                "attr": {
                    "dtype": {
                        "type": "DT_FLOAT"
                    },
                    "value": {
                        "tensor": {
                            "dtype": "DT_FLOAT",
                            "tensorShape": {
                                "dim": [
                                    {
                                        "size": "256"
                                    }
                                ]
                            }
                        }
                    }
                }
            },
            {
                "name": "detector/yolo-v4-tiny/Conv_8/Conv2D_bn_offset",
                "op": "Const",
                "attr": {
                    "value": {
                        "tensor": {
                            "dtype": "DT_FLOAT",
                            "tensorShape": {
                                "dim": [
                                    {
                                        "size": "64"
                                    }
                                ]
                            }
                        }
                    },
                    "dtype": {
                        "type": "DT_FLOAT"
                    }
                }
            },
            {
                "name": "detector/yolo-v4-tiny/Conv_9/Conv2D_weights",
                "op": "Const",
                "attr": {
                    "value": {
                        "tensor": {
                            "dtype": "DT_FLOAT",
                            "tensorShape": {
                                "dim": [
                                    {
                                        "size": "1"
                                    },
                                    {
                                        "size": "1"
                                    },
                                    {
                                        "size": "128"
                                    },
                                    {
                                        "size": "128"
                                    }
                                ]
                            }
                        }
                    },
                    "dtype": {
                        "type": "DT_FLOAT"
                    }
                }
            },
            {
                "name": "detector/yolo-v4-tiny/Conv_9/Conv2D_bn_offset",
                "op": "Const",
                "attr": {
                    "value": {
                        "tensor": {
                            "dtype": "DT_FLOAT",
                            "tensorShape": {
                                "dim": [
                                    {
                                        "size": "128"
                                    }
                                ]
                            }
                        }
                    },
                    "dtype": {
                        "type": "DT_FLOAT"
                    }
                }
            },
            {
                "name": "detector/yolo-v4-tiny/Conv_10/Conv2D_weights",
                "op": "Const",
                "attr": {
                    "value": {
                        "tensor": {
                            "dtype": "DT_FLOAT",
                            "tensorShape": {
                                "dim": [
                                    {
                                        "size": "3"
                                    },
                                    {
                                        "size": "3"
                                    },
                                    {
                                        "size": "256"
                                    },
                                    {
                                        "size": "256"
                                    }
                                ]
                            }
                        }
                    },
                    "dtype": {
                        "type": "DT_FLOAT"
                    }
                }
            },
            {
                "name": "detector/yolo-v4-tiny/Conv_10/Conv2D_bn_offset",
                "op": "Const",
                "attr": {
                    "value": {
                        "tensor": {
                            "dtype": "DT_FLOAT",
                            "tensorShape": {
                                "dim": [
                                    {
                                        "size": "256"
                                    }
                                ]
                            }
                        }
                    },
                    "dtype": {
                        "type": "DT_FLOAT"
                    }
                }
            },
            {
                "name": "detector/yolo-v4-tiny/Conv_11/Conv2D_weights",
                "op": "Const",
                "attr": {
                    "value": {
                        "tensor": {
                            "dtype": "DT_FLOAT",
                            "tensorShape": {
                                "dim": [
                                    {
                                        "size": "3"
                                    },
                                    {
                                        "size": "3"
                                    },
                                    {
                                        "size": "128"
                                    },
                                    {
                                        "size": "128"
                                    }
                                ]
                            }
                        }
                    },
                    "dtype": {
                        "type": "DT_FLOAT"
                    }
                }
            },
            {
                "name": "detector/yolo-v4-tiny/Conv_11/Conv2D_bn_offset",
                "op": "Const",
                "attr": {
                    "dtype": {
                        "type": "DT_FLOAT"
                    },
                    "value": {
                        "tensor": {
                            "dtype": "DT_FLOAT",
                            "tensorShape": {
                                "dim": [
                                    {
                                        "size": "128"
                                    }
                                ]
                            }
                        }
                    }
                }
            },
            {
                "name": "detector/yolo-v4-tiny/Conv_12/Conv2D_weights",
                "op": "Const",
                "attr": {
                    "value": {
                        "tensor": {
                            "dtype": "DT_FLOAT",
                            "tensorShape": {
                                "dim": [
                                    {
                                        "size": "3"
                                    },
                                    {
                                        "size": "3"
                                    },
                                    {
                                        "size": "128"
                                    },
                                    {
                                        "size": "128"
                                    }
                                ]
                            }
                        }
                    },
                    "dtype": {
                        "type": "DT_FLOAT"
                    }
                }
            },
            {
                "name": "detector/yolo-v4-tiny/Conv_12/Conv2D_bn_offset",
                "op": "Const",
                "attr": {
                    "dtype": {
                        "type": "DT_FLOAT"
                    },
                    "value": {
                        "tensor": {
                            "dtype": "DT_FLOAT",
                            "tensorShape": {
                                "dim": [
                                    {
                                        "size": "128"
                                    }
                                ]
                            }
                        }
                    }
                }
            },
            {
                "name": "detector/yolo-v4-tiny/Conv_13/Conv2D_weights",
                "op": "Const",
                "attr": {
                    "dtype": {
                        "type": "DT_FLOAT"
                    },
                    "value": {
                        "tensor": {
                            "dtype": "DT_FLOAT",
                            "tensorShape": {
                                "dim": [
                                    {
                                        "size": "1"
                                    },
                                    {
                                        "size": "1"
                                    },
                                    {
                                        "size": "256"
                                    },
                                    {
                                        "size": "256"
                                    }
                                ]
                            }
                        }
                    }
                }
            },
            {
                "name": "detector/yolo-v4-tiny/Conv_13/Conv2D_bn_offset",
                "op": "Const",
                "attr": {
                    "dtype": {
                        "type": "DT_FLOAT"
                    },
                    "value": {
                        "tensor": {
                            "dtype": "DT_FLOAT",
                            "tensorShape": {
                                "dim": [
                                    {
                                        "size": "256"
                                    }
                                ]
                            }
                        }
                    }
                }
            },
            {
                "name": "detector/yolo-v4-tiny/Conv_14/Conv2D_weights",
                "op": "Const",
                "attr": {
                    "dtype": {
                        "type": "DT_FLOAT"
                    },
                    "value": {
                        "tensor": {
                            "dtype": "DT_FLOAT",
                            "tensorShape": {
                                "dim": [
                                    {
                                        "size": "3"
                                    },
                                    {
                                        "size": "3"
                                    },
                                    {
                                        "size": "512"
                                    },
                                    {
                                        "size": "512"
                                    }
                                ]
                            }
                        }
                    }
                }
            },
            {
                "name": "detector/yolo-v4-tiny/Conv_14/Conv2D_bn_offset",
                "op": "Const",
                "attr": {
                    "dtype": {
                        "type": "DT_FLOAT"
                    },
                    "value": {
                        "tensor": {
                            "dtype": "DT_FLOAT",
                            "tensorShape": {
                                "dim": [
                                    {
                                        "size": "512"
                                    }
                                ]
                            }
                        }
                    }
                }
            },
            {
                "name": "detector/yolo-v4-tiny/Conv_15/Conv2D_weights",
                "op": "Const",
                "attr": {
                    "value": {
                        "tensor": {
                            "dtype": "DT_FLOAT",
                            "tensorShape": {
                                "dim": [
                                    {
                                        "size": "1"
                                    },
                                    {
                                        "size": "1"
                                    },
                                    {
                                        "size": "512"
                                    },
                                    {
                                        "size": "256"
                                    }
                                ]
                            }
                        }
                    },
                    "dtype": {
                        "type": "DT_FLOAT"
                    }
                }
            },
            {
                "name": "detector/yolo-v4-tiny/Conv_15/Conv2D_bn_offset",
                "op": "Const",
                "attr": {
                    "value": {
                        "tensor": {
                            "dtype": "DT_FLOAT",
                            "tensorShape": {
                                "dim": [
                                    {
                                        "size": "256"
                                    }
                                ]
                            }
                        }
                    },
                    "dtype": {
                        "type": "DT_FLOAT"
                    }
                }
            },
            {
                "name": "detector/yolo-v4-tiny/Conv_16/Conv2D_weights",
                "op": "Const",
                "attr": {
                    "value": {
                        "tensor": {
                            "dtype": "DT_FLOAT",
                            "tensorShape": {
                                "dim": [
                                    {
                                        "size": "3"
                                    },
                                    {
                                        "size": "3"
                                    },
                                    {
                                        "size": "256"
                                    },
                                    {
                                        "size": "512"
                                    }
                                ]
                            }
                        }
                    },
                    "dtype": {
                        "type": "DT_FLOAT"
                    }
                }
            },
            {
                "name": "detector/yolo-v4-tiny/Conv_16/Conv2D_bn_offset",
                "op": "Const",
                "attr": {
                    "value": {
                        "tensor": {
                            "dtype": "DT_FLOAT",
                            "tensorShape": {
                                "dim": [
                                    {
                                        "size": "512"
                                    }
                                ]
                            }
                        }
                    },
                    "dtype": {
                        "type": "DT_FLOAT"
                    }
                }
            },
            {
                "name": "detector/truediv",
                "op": "Mul",
                "input": [
                    "inputs",
                    "ConstantFolding/detector/truediv_recip"
                ],
                "attr": {
                    "T": {
                        "type": "DT_FLOAT"
                    }
                }
            },
            {
                "name": "detector/yolo-v4-tiny/Pad",
                "op": "Pad",
                "input": [
                    "detector/truediv",
                    "detector/yolo-v4-tiny/Pad/paddings"
                ],
                "attr": {
                    "T": {
                        "type": "DT_FLOAT"
                    },
                    "Tpaddings": {
                        "type": "DT_INT32"
                    }
                }
            },
            {
                "name": "detector/yolo-v4-tiny/Conv/LeakyRelu",
                "op": "_FusedConv2D",
                "input": [
                    "detector/yolo-v4-tiny/Pad",
                    "detector/yolo-v4-tiny/Conv/Conv2D_weights",
                    "detector/yolo-v4-tiny/Conv/Conv2D_bn_offset"
                ],
                "device": "/device:CPU:0",
                "attr": {
                    "use_cudnn_on_gpu": {
                        "b": true
                    },
                    "strides": {
                        "list": {
                            "i": [
                                "1",
                                "2",
                                "2",
                                "1"
                            ]
                        }
                    },
                    "leakyrelu_alpha": {
                        "f": 0.1
                    },
                    "fused_ops": {
                        "list": {
                            "s": [
                                "Qmlhc0FkZA==",
                                "TGVha3lSZWx1"
                            ]
                        }
                    },
                    "T": {
                        "type": "DT_FLOAT"
                    },
                    "data_format": {
                        "s": "TkhXQw=="
                    },
                    "dilations": {
                        "list": {
                            "i": [
                                "1",
                                "1",
                                "1",
                                "1"
                            ]
                        }
                    },
                    "padding": {
                        "s": "VkFMSUQ="
                    },
                    "epsilon": {
                        "f": 0
                    },
                    "explicit_paddings": {
                        "list": {}
                    },
                    "num_args": {
                        "i": "1"
                    }
                }
            },
            {
                "name": "detector/yolo-v4-tiny/Pad_1",
                "op": "Pad",
                "input": [
                    "detector/yolo-v4-tiny/Conv/LeakyRelu",
                    "detector/yolo-v4-tiny/Pad_1/paddings"
                ],
                "attr": {
                    "T": {
                        "type": "DT_FLOAT"
                    },
                    "Tpaddings": {
                        "type": "DT_INT32"
                    }
                }
            },
            {
                "name": "detector/yolo-v4-tiny/Conv_1/LeakyRelu",
                "op": "_FusedConv2D",
                "input": [
                    "detector/yolo-v4-tiny/Pad_1",
                    "detector/yolo-v4-tiny/Conv_1/Conv2D_weights",
                    "detector/yolo-v4-tiny/Conv_1/Conv2D_bn_offset"
                ],
                "device": "/device:CPU:0",
                "attr": {
                    "explicit_paddings": {
                        "list": {}
                    },
                    "dilations": {
                        "list": {
                            "i": [
                                "1",
                                "1",
                                "1",
                                "1"
                            ]
                        }
                    },
                    "padding": {
                        "s": "VkFMSUQ="
                    },
                    "T": {
                        "type": "DT_FLOAT"
                    },
                    "data_format": {
                        "s": "TkhXQw=="
                    },
                    "use_cudnn_on_gpu": {
                        "b": true
                    },
                    "leakyrelu_alpha": {
                        "f": 0.1
                    },
                    "epsilon": {
                        "f": 0
                    },
                    "strides": {
                        "list": {
                            "i": [
                                "1",
                                "2",
                                "2",
                                "1"
                            ]
                        }
                    },
                    "fused_ops": {
                        "list": {
                            "s": [
                                "Qmlhc0FkZA==",
                                "TGVha3lSZWx1"
                            ]
                        }
                    },
                    "num_args": {
                        "i": "1"
                    }
                }
            },
            {
                "name": "detector/yolo-v4-tiny/Conv_2/LeakyRelu",
                "op": "_FusedConv2D",
                "input": [
                    "detector/yolo-v4-tiny/Conv_1/LeakyRelu",
                    "detector/yolo-v4-tiny/Conv_2/Conv2D_weights",
                    "detector/yolo-v4-tiny/Conv_2/Conv2D_bn_offset"
                ],
                "device": "/device:CPU:0",
                "attr": {
                    "leakyrelu_alpha": {
                        "f": 0.1
                    },
                    "data_format": {
                        "s": "TkhXQw=="
                    },
                    "use_cudnn_on_gpu": {
                        "b": true
                    },
                    "num_args": {
                        "i": "1"
                    },
                    "strides": {
                        "list": {
                            "i": [
                                "1",
                                "1",
                                "1",
                                "1"
                            ]
                        }
                    },
                    "fused_ops": {
                        "list": {
                            "s": [
                                "Qmlhc0FkZA==",
                                "TGVha3lSZWx1"
                            ]
                        }
                    },
                    "epsilon": {
                        "f": 0
                    },
                    "dilations": {
                        "list": {
                            "i": [
                                "1",
                                "1",
                                "1",
                                "1"
                            ]
                        }
                    },
                    "explicit_paddings": {
                        "list": {}
                    },
                    "padding": {
                        "s": "U0FNRQ=="
                    },
                    "T": {
                        "type": "DT_FLOAT"
                    }
                }
            },
            {
                "name": "detector/yolo-v4-tiny/strided_slice",
                "op": "StridedSlice",
                "input": [
                    "detector/yolo-v4-tiny/Conv_2/LeakyRelu",
                    "detector/yolo-v4-tiny/strided_slice/stack",
                    "detector/yolo-v4-tiny/strided_slice/stack_1",
                    "detector/yolo-v4-tiny/strided_slice/stack_2"
                ],
                "attr": {
                    "new_axis_mask": {
                        "i": "0"
                    },
                    "T": {
                        "type": "DT_FLOAT"
                    },
                    "shrink_axis_mask": {
                        "i": "0"
                    },
                    "Index": {
                        "type": "DT_INT32"
                    },
                    "end_mask": {
                        "i": "15"
                    },
                    "ellipsis_mask": {
                        "i": "0"
                    },
                    "begin_mask": {
                        "i": "7"
                    }
                }
            },
            {
                "name": "detector/yolo-v4-tiny/Conv_3/LeakyRelu",
                "op": "_FusedConv2D",
                "input": [
                    "detector/yolo-v4-tiny/strided_slice",
                    "detector/yolo-v4-tiny/Conv_3/Conv2D_weights",
                    "detector/yolo-v4-tiny/Conv_3/Conv2D_bn_offset"
                ],
                "device": "/device:CPU:0",
                "attr": {
                    "T": {
                        "type": "DT_FLOAT"
                    },
                    "padding": {
                        "s": "U0FNRQ=="
                    },
                    "epsilon": {
                        "f": 0
                    },
                    "data_format": {
                        "s": "TkhXQw=="
                    },
                    "leakyrelu_alpha": {
                        "f": 0.1
                    },
                    "num_args": {
                        "i": "1"
                    },
                    "use_cudnn_on_gpu": {
                        "b": true
                    },
                    "explicit_paddings": {
                        "list": {}
                    },
                    "fused_ops": {
                        "list": {
                            "s": [
                                "Qmlhc0FkZA==",
                                "TGVha3lSZWx1"
                            ]
                        }
                    },
                    "strides": {
                        "list": {
                            "i": [
                                "1",
                                "1",
                                "1",
                                "1"
                            ]
                        }
                    },
                    "dilations": {
                        "list": {
                            "i": [
                                "1",
                                "1",
                                "1",
                                "1"
                            ]
                        }
                    }
                }
            },
            {
                "name": "detector/yolo-v4-tiny/Conv_4/LeakyRelu",
                "op": "_FusedConv2D",
                "input": [
                    "detector/yolo-v4-tiny/Conv_3/LeakyRelu",
                    "detector/yolo-v4-tiny/Conv_4/Conv2D_weights",
                    "detector/yolo-v4-tiny/Conv_4/Conv2D_bn_offset"
                ],
                "device": "/device:CPU:0",
                "attr": {
                    "padding": {
                        "s": "U0FNRQ=="
                    },
                    "T": {
                        "type": "DT_FLOAT"
                    },
                    "num_args": {
                        "i": "1"
                    },
                    "fused_ops": {
                        "list": {
                            "s": [
                                "Qmlhc0FkZA==",
                                "TGVha3lSZWx1"
                            ]
                        }
                    },
                    "use_cudnn_on_gpu": {
                        "b": true
                    },
                    "dilations": {
                        "list": {
                            "i": [
                                "1",
                                "1",
                                "1",
                                "1"
                            ]
                        }
                    },
                    "epsilon": {
                        "f": 0
                    },
                    "explicit_paddings": {
                        "list": {}
                    },
                    "data_format": {
                        "s": "TkhXQw=="
                    },
                    "strides": {
                        "list": {
                            "i": [
                                "1",
                                "1",
                                "1",
                                "1"
                            ]
                        }
                    },
                    "leakyrelu_alpha": {
                        "f": 0.1
                    }
                }
            },
            {
                "name": "detector/yolo-v4-tiny/concat",
                "op": "ConcatV2",
                "input": [
                    "detector/yolo-v4-tiny/Conv_4/LeakyRelu",
                    "detector/yolo-v4-tiny/Conv_3/LeakyRelu",
                    "detector/yolo-v4-tiny/concat/axis"
                ],
                "attr": {
                    "N": {
                        "i": "2"
                    },
                    "Tidx": {
                        "type": "DT_INT32"
                    },
                    "T": {
                        "type": "DT_FLOAT"
                    }
                }
            },
            {
                "name": "detector/yolo-v4-tiny/Conv_5/LeakyRelu",
                "op": "_FusedConv2D",
                "input": [
                    "detector/yolo-v4-tiny/concat",
                    "detector/yolo-v4-tiny/Conv_5/Conv2D_weights",
                    "detector/yolo-v4-tiny/Conv_5/Conv2D_bn_offset"
                ],
                "device": "/device:CPU:0",
                "attr": {
                    "explicit_paddings": {
                        "list": {}
                    },
                    "num_args": {
                        "i": "1"
                    },
                    "leakyrelu_alpha": {
                        "f": 0.1
                    },
                    "data_format": {
                        "s": "TkhXQw=="
                    },
                    "fused_ops": {
                        "list": {
                            "s": [
                                "Qmlhc0FkZA==",
                                "TGVha3lSZWx1"
                            ]
                        }
                    },
                    "use_cudnn_on_gpu": {
                        "b": true
                    },
                    "dilations": {
                        "list": {
                            "i": [
                                "1",
                                "1",
                                "1",
                                "1"
                            ]
                        }
                    },
                    "epsilon": {
                        "f": 0
                    },
                    "padding": {
                        "s": "U0FNRQ=="
                    },
                    "T": {
                        "type": "DT_FLOAT"
                    },
                    "strides": {
                        "list": {
                            "i": [
                                "1",
                                "1",
                                "1",
                                "1"
                            ]
                        }
                    }
                }
            },
            {
                "name": "detector/yolo-v4-tiny/concat_1",
                "op": "ConcatV2",
                "input": [
                    "detector/yolo-v4-tiny/Conv_2/LeakyRelu",
                    "detector/yolo-v4-tiny/Conv_5/LeakyRelu",
                    "detector/yolo-v4-tiny/concat_1/axis"
                ],
                "attr": {
                    "N": {
                        "i": "2"
                    },
                    "Tidx": {
                        "type": "DT_INT32"
                    },
                    "T": {
                        "type": "DT_FLOAT"
                    }
                }
            },
            {
                "name": "detector/yolo-v4-tiny/pool2/MaxPool",
                "op": "MaxPool",
                "input": [
                    "detector/yolo-v4-tiny/concat_1"
                ],
                "attr": {
                    "padding": {
                        "s": "VkFMSUQ="
                    },
                    "explicit_paddings": {
                        "list": {}
                    },
                    "data_format": {
                        "s": "TkhXQw=="
                    },
                    "strides": {
                        "list": {
                            "i": [
                                "1",
                                "2",
                                "2",
                                "1"
                            ]
                        }
                    },
                    "ksize": {
                        "list": {
                            "i": [
                                "1",
                                "2",
                                "2",
                                "1"
                            ]
                        }
                    },
                    "T": {
                        "type": "DT_FLOAT"
                    }
                }
            },
            {
                "name": "detector/yolo-v4-tiny/Conv_6/LeakyRelu",
                "op": "_FusedConv2D",
                "input": [
                    "detector/yolo-v4-tiny/pool2/MaxPool",
                    "detector/yolo-v4-tiny/Conv_6/Conv2D_weights",
                    "detector/yolo-v4-tiny/Conv_6/Conv2D_bn_offset"
                ],
                "device": "/device:CPU:0",
                "attr": {
                    "use_cudnn_on_gpu": {
                        "b": true
                    },
                    "strides": {
                        "list": {
                            "i": [
                                "1",
                                "1",
                                "1",
                                "1"
                            ]
                        }
                    },
                    "num_args": {
                        "i": "1"
                    },
                    "fused_ops": {
                        "list": {
                            "s": [
                                "Qmlhc0FkZA==",
                                "TGVha3lSZWx1"
                            ]
                        }
                    },
                    "data_format": {
                        "s": "TkhXQw=="
                    },
                    "explicit_paddings": {
                        "list": {}
                    },
                    "T": {
                        "type": "DT_FLOAT"
                    },
                    "leakyrelu_alpha": {
                        "f": 0.1
                    },
                    "epsilon": {
                        "f": 0
                    },
                    "padding": {
                        "s": "U0FNRQ=="
                    },
                    "dilations": {
                        "list": {
                            "i": [
                                "1",
                                "1",
                                "1",
                                "1"
                            ]
                        }
                    }
                }
            },
            {
                "name": "detector/yolo-v4-tiny/strided_slice_1",
                "op": "StridedSlice",
                "input": [
                    "detector/yolo-v4-tiny/Conv_6/LeakyRelu",
                    "detector/yolo-v4-tiny/strided_slice_1/stack",
                    "detector/yolo-v4-tiny/strided_slice_1/stack_1",
                    "detector/yolo-v4-tiny/strided_slice_1/stack_2"
                ],
                "attr": {
                    "shrink_axis_mask": {
                        "i": "0"
                    },
                    "T": {
                        "type": "DT_FLOAT"
                    },
                    "ellipsis_mask": {
                        "i": "0"
                    },
                    "end_mask": {
                        "i": "15"
                    },
                    "begin_mask": {
                        "i": "7"
                    },
                    "Index": {
                        "type": "DT_INT32"
                    },
                    "new_axis_mask": {
                        "i": "0"
                    }
                }
            },
            {
                "name": "detector/yolo-v4-tiny/Conv_7/LeakyRelu",
                "op": "_FusedConv2D",
                "input": [
                    "detector/yolo-v4-tiny/strided_slice_1",
                    "detector/yolo-v4-tiny/Conv_7/Conv2D_weights",
                    "detector/yolo-v4-tiny/Conv_7/Conv2D_bn_offset"
                ],
                "device": "/device:CPU:0",
                "attr": {
                    "padding": {
                        "s": "U0FNRQ=="
                    },
                    "strides": {
                        "list": {
                            "i": [
                                "1",
                                "1",
                                "1",
                                "1"
                            ]
                        }
                    },
                    "T": {
                        "type": "DT_FLOAT"
                    },
                    "leakyrelu_alpha": {
                        "f": 0.1
                    },
                    "data_format": {
                        "s": "TkhXQw=="
                    },
                    "fused_ops": {
                        "list": {
                            "s": [
                                "Qmlhc0FkZA==",
                                "TGVha3lSZWx1"
                            ]
                        }
                    },
                    "dilations": {
                        "list": {
                            "i": [
                                "1",
                                "1",
                                "1",
                                "1"
                            ]
                        }
                    },
                    "epsilon": {
                        "f": 0
                    },
                    "num_args": {
                        "i": "1"
                    },
                    "explicit_paddings": {
                        "list": {}
                    },
                    "use_cudnn_on_gpu": {
                        "b": true
                    }
                }
            },
            {
                "name": "detector/yolo-v4-tiny/Conv_8/LeakyRelu",
                "op": "_FusedConv2D",
                "input": [
                    "detector/yolo-v4-tiny/Conv_7/LeakyRelu",
                    "detector/yolo-v4-tiny/Conv_8/Conv2D_weights",
                    "detector/yolo-v4-tiny/Conv_8/Conv2D_bn_offset"
                ],
                "device": "/device:CPU:0",
                "attr": {
                    "strides": {
                        "list": {
                            "i": [
                                "1",
                                "1",
                                "1",
                                "1"
                            ]
                        }
                    },
                    "num_args": {
                        "i": "1"
                    },
                    "dilations": {
                        "list": {
                            "i": [
                                "1",
                                "1",
                                "1",
                                "1"
                            ]
                        }
                    },
                    "T": {
                        "type": "DT_FLOAT"
                    },
                    "data_format": {
                        "s": "TkhXQw=="
                    },
                    "use_cudnn_on_gpu": {
                        "b": true
                    },
                    "explicit_paddings": {
                        "list": {}
                    },
                    "epsilon": {
                        "f": 0
                    },
                    "leakyrelu_alpha": {
                        "f": 0.1
                    },
                    "fused_ops": {
                        "list": {
                            "s": [
                                "Qmlhc0FkZA==",
                                "TGVha3lSZWx1"
                            ]
                        }
                    },
                    "padding": {
                        "s": "U0FNRQ=="
                    }
                }
            },
            {
                "name": "detector/yolo-v4-tiny/concat_2",
                "op": "ConcatV2",
                "input": [
                    "detector/yolo-v4-tiny/Conv_8/LeakyRelu",
                    "detector/yolo-v4-tiny/Conv_7/LeakyRelu",
                    "detector/yolo-v4-tiny/concat_2/axis"
                ],
                "attr": {
                    "T": {
                        "type": "DT_FLOAT"
                    },
                    "Tidx": {
                        "type": "DT_INT32"
                    },
                    "N": {
                        "i": "2"
                    }
                }
            },
            {
                "name": "detector/yolo-v4-tiny/Conv_9/LeakyRelu",
                "op": "_FusedConv2D",
                "input": [
                    "detector/yolo-v4-tiny/concat_2",
                    "detector/yolo-v4-tiny/Conv_9/Conv2D_weights",
                    "detector/yolo-v4-tiny/Conv_9/Conv2D_bn_offset"
                ],
                "device": "/device:CPU:0",
                "attr": {
                    "fused_ops": {
                        "list": {
                            "s": [
                                "Qmlhc0FkZA==",
                                "TGVha3lSZWx1"
                            ]
                        }
                    },
                    "strides": {
                        "list": {
                            "i": [
                                "1",
                                "1",
                                "1",
                                "1"
                            ]
                        }
                    },
                    "leakyrelu_alpha": {
                        "f": 0.1
                    },
                    "dilations": {
                        "list": {
                            "i": [
                                "1",
                                "1",
                                "1",
                                "1"
                            ]
                        }
                    },
                    "padding": {
                        "s": "U0FNRQ=="
                    },
                    "num_args": {
                        "i": "1"
                    },
                    "epsilon": {
                        "f": 0
                    },
                    "T": {
                        "type": "DT_FLOAT"
                    },
                    "data_format": {
                        "s": "TkhXQw=="
                    },
                    "explicit_paddings": {
                        "list": {}
                    },
                    "use_cudnn_on_gpu": {
                        "b": true
                    }
                }
            },
            {
                "name": "detector/yolo-v4-tiny/concat_3",
                "op": "ConcatV2",
                "input": [
                    "detector/yolo-v4-tiny/Conv_6/LeakyRelu",
                    "detector/yolo-v4-tiny/Conv_9/LeakyRelu",
                    "detector/yolo-v4-tiny/concat_3/axis"
                ],
                "attr": {
                    "N": {
                        "i": "2"
                    },
                    "Tidx": {
                        "type": "DT_INT32"
                    },
                    "T": {
                        "type": "DT_FLOAT"
                    }
                }
            },
            {
                "name": "detector/yolo-v4-tiny/pool2_1/MaxPool",
                "op": "MaxPool",
                "input": [
                    "detector/yolo-v4-tiny/concat_3"
                ],
                "attr": {
                    "T": {
                        "type": "DT_FLOAT"
                    },
                    "explicit_paddings": {
                        "list": {}
                    },
                    "padding": {
                        "s": "VkFMSUQ="
                    },
                    "strides": {
                        "list": {
                            "i": [
                                "1",
                                "2",
                                "2",
                                "1"
                            ]
                        }
                    },
                    "ksize": {
                        "list": {
                            "i": [
                                "1",
                                "2",
                                "2",
                                "1"
                            ]
                        }
                    },
                    "data_format": {
                        "s": "TkhXQw=="
                    }
                }
            },
            {
                "name": "detector/yolo-v4-tiny/Conv_10/LeakyRelu",
                "op": "_FusedConv2D",
                "input": [
                    "detector/yolo-v4-tiny/pool2_1/MaxPool",
                    "detector/yolo-v4-tiny/Conv_10/Conv2D_weights",
                    "detector/yolo-v4-tiny/Conv_10/Conv2D_bn_offset"
                ],
                "device": "/device:CPU:0",
                "attr": {
                    "dilations": {
                        "list": {
                            "i": [
                                "1",
                                "1",
                                "1",
                                "1"
                            ]
                        }
                    },
                    "fused_ops": {
                        "list": {
                            "s": [
                                "Qmlhc0FkZA==",
                                "TGVha3lSZWx1"
                            ]
                        }
                    },
                    "padding": {
                        "s": "U0FNRQ=="
                    },
                    "epsilon": {
                        "f": 0
                    },
                    "leakyrelu_alpha": {
                        "f": 0.1
                    },
                    "strides": {
                        "list": {
                            "i": [
                                "1",
                                "1",
                                "1",
                                "1"
                            ]
                        }
                    },
                    "data_format": {
                        "s": "TkhXQw=="
                    },
                    "explicit_paddings": {
                        "list": {}
                    },
                    "use_cudnn_on_gpu": {
                        "b": true
                    },
                    "T": {
                        "type": "DT_FLOAT"
                    },
                    "num_args": {
                        "i": "1"
                    }
                }
            },
            {
                "name": "detector/yolo-v4-tiny/strided_slice_2",
                "op": "StridedSlice",
                "input": [
                    "detector/yolo-v4-tiny/Conv_10/LeakyRelu",
                    "detector/yolo-v4-tiny/strided_slice_2/stack",
                    "detector/yolo-v4-tiny/strided_slice_2/stack_1",
                    "detector/yolo-v4-tiny/strided_slice_2/stack_2"
                ],
                "attr": {
                    "new_axis_mask": {
                        "i": "0"
                    },
                    "Index": {
                        "type": "DT_INT32"
                    },
                    "T": {
                        "type": "DT_FLOAT"
                    },
                    "ellipsis_mask": {
                        "i": "0"
                    },
                    "shrink_axis_mask": {
                        "i": "0"
                    },
                    "end_mask": {
                        "i": "15"
                    },
                    "begin_mask": {
                        "i": "7"
                    }
                }
            },
            {
                "name": "detector/yolo-v4-tiny/Conv_11/LeakyRelu",
                "op": "_FusedConv2D",
                "input": [
                    "detector/yolo-v4-tiny/strided_slice_2",
                    "detector/yolo-v4-tiny/Conv_11/Conv2D_weights",
                    "detector/yolo-v4-tiny/Conv_11/Conv2D_bn_offset"
                ],
                "device": "/device:CPU:0",
                "attr": {
                    "leakyrelu_alpha": {
                        "f": 0.1
                    },
                    "num_args": {
                        "i": "1"
                    },
                    "use_cudnn_on_gpu": {
                        "b": true
                    },
                    "T": {
                        "type": "DT_FLOAT"
                    },
                    "fused_ops": {
                        "list": {
                            "s": [
                                "Qmlhc0FkZA==",
                                "TGVha3lSZWx1"
                            ]
                        }
                    },
                    "data_format": {
                        "s": "TkhXQw=="
                    },
                    "padding": {
                        "s": "U0FNRQ=="
                    },
                    "explicit_paddings": {
                        "list": {}
                    },
                    "dilations": {
                        "list": {
                            "i": [
                                "1",
                                "1",
                                "1",
                                "1"
                            ]
                        }
                    },
                    "strides": {
                        "list": {
                            "i": [
                                "1",
                                "1",
                                "1",
                                "1"
                            ]
                        }
                    },
                    "epsilon": {
                        "f": 0
                    }
                }
            },
            {
                "name": "detector/yolo-v4-tiny/Conv_12/LeakyRelu",
                "op": "_FusedConv2D",
                "input": [
                    "detector/yolo-v4-tiny/Conv_11/LeakyRelu",
                    "detector/yolo-v4-tiny/Conv_12/Conv2D_weights",
                    "detector/yolo-v4-tiny/Conv_12/Conv2D_bn_offset"
                ],
                "device": "/device:CPU:0",
                "attr": {
                    "dilations": {
                        "list": {
                            "i": [
                                "1",
                                "1",
                                "1",
                                "1"
                            ]
                        }
                    },
                    "use_cudnn_on_gpu": {
                        "b": true
                    },
                    "explicit_paddings": {
                        "list": {}
                    },
                    "padding": {
                        "s": "U0FNRQ=="
                    },
                    "fused_ops": {
                        "list": {
                            "s": [
                                "Qmlhc0FkZA==",
                                "TGVha3lSZWx1"
                            ]
                        }
                    },
                    "num_args": {
                        "i": "1"
                    },
                    "data_format": {
                        "s": "TkhXQw=="
                    },
                    "strides": {
                        "list": {
                            "i": [
                                "1",
                                "1",
                                "1",
                                "1"
                            ]
                        }
                    },
                    "leakyrelu_alpha": {
                        "f": 0.1
                    },
                    "epsilon": {
                        "f": 0
                    },
                    "T": {
                        "type": "DT_FLOAT"
                    }
                }
            },
            {
                "name": "detector/yolo-v4-tiny/concat_4",
                "op": "ConcatV2",
                "input": [
                    "detector/yolo-v4-tiny/Conv_12/LeakyRelu",
                    "detector/yolo-v4-tiny/Conv_11/LeakyRelu",
                    "detector/yolo-v4-tiny/concat_4/axis"
                ],
                "attr": {
                    "Tidx": {
                        "type": "DT_INT32"
                    },
                    "N": {
                        "i": "2"
                    },
                    "T": {
                        "type": "DT_FLOAT"
                    }
                }
            },
            {
                "name": "detector/yolo-v4-tiny/Conv_13/LeakyRelu",
                "op": "_FusedConv2D",
                "input": [
                    "detector/yolo-v4-tiny/concat_4",
                    "detector/yolo-v4-tiny/Conv_13/Conv2D_weights",
                    "detector/yolo-v4-tiny/Conv_13/Conv2D_bn_offset"
                ],
                "device": "/device:CPU:0",
                "attr": {
                    "data_format": {
                        "s": "TkhXQw=="
                    },
                    "explicit_paddings": {
                        "list": {}
                    },
                    "T": {
                        "type": "DT_FLOAT"
                    },
                    "num_args": {
                        "i": "1"
                    },
                    "dilations": {
                        "list": {
                            "i": [
                                "1",
                                "1",
                                "1",
                                "1"
                            ]
                        }
                    },
                    "strides": {
                        "list": {
                            "i": [
                                "1",
                                "1",
                                "1",
                                "1"
                            ]
                        }
                    },
                    "use_cudnn_on_gpu": {
                        "b": true
                    },
                    "fused_ops": {
                        "list": {
                            "s": [
                                "Qmlhc0FkZA==",
                                "TGVha3lSZWx1"
                            ]
                        }
                    },
                    "epsilon": {
                        "f": 0
                    },
                    "leakyrelu_alpha": {
                        "f": 0.1
                    },
                    "padding": {
                        "s": "U0FNRQ=="
                    }
                }
            },
            {
                "name": "detector/yolo-v4-tiny/concat_5",
                "op": "ConcatV2",
                "input": [
                    "detector/yolo-v4-tiny/Conv_10/LeakyRelu",
                    "detector/yolo-v4-tiny/Conv_13/LeakyRelu",
                    "detector/yolo-v4-tiny/concat_5/axis"
                ],
                "attr": {
                    "N": {
                        "i": "2"
                    },
                    "Tidx": {
                        "type": "DT_INT32"
                    },
                    "T": {
                        "type": "DT_FLOAT"
                    }
                }
            },
            {
                "name": "detector/yolo-v4-tiny/pool2_2/MaxPool",
                "op": "MaxPool",
                "input": [
                    "detector/yolo-v4-tiny/concat_5"
                ],
                "attr": {
                    "explicit_paddings": {
                        "list": {}
                    },
                    "strides": {
                        "list": {
                            "i": [
                                "1",
                                "2",
                                "2",
                                "1"
                            ]
                        }
                    },
                    "ksize": {
                        "list": {
                            "i": [
                                "1",
                                "2",
                                "2",
                                "1"
                            ]
                        }
                    },
                    "padding": {
                        "s": "VkFMSUQ="
                    },
                    "data_format": {
                        "s": "TkhXQw=="
                    },
                    "T": {
                        "type": "DT_FLOAT"
                    }
                }
            },
            {
                "name": "detector/yolo-v4-tiny/Conv_14/LeakyRelu",
                "op": "_FusedConv2D",
                "input": [
                    "detector/yolo-v4-tiny/pool2_2/MaxPool",
                    "detector/yolo-v4-tiny/Conv_14/Conv2D_weights",
                    "detector/yolo-v4-tiny/Conv_14/Conv2D_bn_offset"
                ],
                "device": "/device:CPU:0",
                "attr": {
                    "use_cudnn_on_gpu": {
                        "b": true
                    },
                    "padding": {
                        "s": "U0FNRQ=="
                    },
                    "num_args": {
                        "i": "1"
                    },
                    "fused_ops": {
                        "list": {
                            "s": [
                                "Qmlhc0FkZA==",
                                "TGVha3lSZWx1"
                            ]
                        }
                    },
                    "leakyrelu_alpha": {
                        "f": 0.1
                    },
                    "dilations": {
                        "list": {
                            "i": [
                                "1",
                                "1",
                                "1",
                                "1"
                            ]
                        }
                    },
                    "explicit_paddings": {
                        "list": {}
                    },
                    "T": {
                        "type": "DT_FLOAT"
                    },
                    "epsilon": {
                        "f": 0
                    },
                    "strides": {
                        "list": {
                            "i": [
                                "1",
                                "1",
                                "1",
                                "1"
                            ]
                        }
                    },
                    "data_format": {
                        "s": "TkhXQw=="
                    }
                }
            },
            {
                "name": "detector/yolo-v4-tiny/Conv_15/LeakyRelu",
                "op": "_FusedConv2D",
                "input": [
                    "detector/yolo-v4-tiny/Conv_14/LeakyRelu",
                    "detector/yolo-v4-tiny/Conv_15/Conv2D_weights",
                    "detector/yolo-v4-tiny/Conv_15/Conv2D_bn_offset"
                ],
                "device": "/device:CPU:0",
                "attr": {
                    "use_cudnn_on_gpu": {
                        "b": true
                    },
                    "padding": {
                        "s": "U0FNRQ=="
                    },
                    "explicit_paddings": {
                        "list": {}
                    },
                    "leakyrelu_alpha": {
                        "f": 0.1
                    },
                    "epsilon": {
                        "f": 0
                    },
                    "data_format": {
                        "s": "TkhXQw=="
                    },
                    "T": {
                        "type": "DT_FLOAT"
                    },
                    "fused_ops": {
                        "list": {
                            "s": [
                                "Qmlhc0FkZA==",
                                "TGVha3lSZWx1"
                            ]
                        }
                    },
                    "dilations": {
                        "list": {
                            "i": [
                                "1",
                                "1",
                                "1",
                                "1"
                            ]
                        }
                    },
                    "num_args": {
                        "i": "1"
                    },
                    "strides": {
                        "list": {
                            "i": [
                                "1",
                                "1",
                                "1",
                                "1"
                            ]
                        }
                    }
                }
            },
            {
                "name": "detector/yolo-v4-tiny/Conv_18/LeakyRelu",
                "op": "_FusedConv2D",
                "input": [
                    "detector/yolo-v4-tiny/Conv_15/LeakyRelu",
                    "detector/yolo-v4-tiny/Conv_18/Conv2D_weights",
                    "detector/yolo-v4-tiny/Conv_18/Conv2D_bn_offset"
                ],
                "device": "/device:CPU:0",
                "attr": {
                    "num_args": {
                        "i": "1"
                    },
                    "use_cudnn_on_gpu": {
                        "b": true
                    },
                    "explicit_paddings": {
                        "list": {}
                    },
                    "T": {
                        "type": "DT_FLOAT"
                    },
                    "fused_ops": {
                        "list": {
                            "s": [
                                "Qmlhc0FkZA==",
                                "TGVha3lSZWx1"
                            ]
                        }
                    },
                    "epsilon": {
                        "f": 0
                    },
                    "data_format": {
                        "s": "TkhXQw=="
                    },
                    "padding": {
                        "s": "U0FNRQ=="
                    },
                    "leakyrelu_alpha": {
                        "f": 0.1
                    },
                    "dilations": {
                        "list": {
                            "i": [
                                "1",
                                "1",
                                "1",
                                "1"
                            ]
                        }
                    },
                    "strides": {
                        "list": {
                            "i": [
                                "1",
                                "1",
                                "1",
                                "1"
                            ]
                        }
                    }
                }
            },
            {
                "name": "detector/yolo-v4-tiny/Conv_16/LeakyRelu",
                "op": "_FusedConv2D",
                "input": [
                    "detector/yolo-v4-tiny/Conv_15/LeakyRelu",
                    "detector/yolo-v4-tiny/Conv_16/Conv2D_weights",
                    "detector/yolo-v4-tiny/Conv_16/Conv2D_bn_offset"
                ],
                "device": "/device:CPU:0",
                "attr": {
                    "epsilon": {
                        "f": 0
                    },
                    "num_args": {
                        "i": "1"
                    },
                    "strides": {
                        "list": {
                            "i": [
                                "1",
                                "1",
                                "1",
                                "1"
                            ]
                        }
                    },
                    "data_format": {
                        "s": "TkhXQw=="
                    },
                    "use_cudnn_on_gpu": {
                        "b": true
                    },
                    "leakyrelu_alpha": {
                        "f": 0.1
                    },
                    "explicit_paddings": {
                        "list": {}
                    },
                    "dilations": {
                        "list": {
                            "i": [
                                "1",
                                "1",
                                "1",
                                "1"
                            ]
                        }
                    },
                    "fused_ops": {
                        "list": {
                            "s": [
                                "Qmlhc0FkZA==",
                                "TGVha3lSZWx1"
                            ]
                        }
                    },
                    "padding": {
                        "s": "U0FNRQ=="
                    },
                    "T": {
                        "type": "DT_FLOAT"
                    }
                }
            },
            {
                "name": "detector/yolo-v4-tiny/ResizeNearestNeighbor",
                "op": "ResizeNearestNeighbor",
                "input": [
                    "detector/yolo-v4-tiny/Conv_18/LeakyRelu",
                    "detector/yolo-v4-tiny/ResizeNearestNeighbor/size"
                ],
                "attr": {
                    "align_corners": {
                        "b": false
                    },
                    "half_pixel_centers": {
                        "b": false
                    },
                    "T": {
                        "type": "DT_FLOAT"
                    }
                }
            },
            {
                "name": "detector/yolo-v4-tiny/Conv_17/BiasAdd",
                "op": "_FusedConv2D",
                "input": [
                    "detector/yolo-v4-tiny/Conv_16/LeakyRelu",
                    "detector/yolo-v4-tiny/Conv_17/weights",
                    "detector/yolo-v4-tiny/Conv_17/biases"
                ],
                "device": "/device:CPU:0",
                "attr": {
                    "explicit_paddings": {
                        "list": {}
                    },
                    "fused_ops": {
                        "list": {
                            "s": [
                                "Qmlhc0FkZA=="
                            ]
                        }
                    },
                    "epsilon": {
                        "f": 0
                    },
                    "data_format": {
                        "s": "TkhXQw=="
                    },
                    "dilations": {
                        "list": {
                            "i": [
                                "1",
                                "1",
                                "1",
                                "1"
                            ]
                        }
                    },
                    "padding": {
                        "s": "U0FNRQ=="
                    },
                    "T": {
                        "type": "DT_FLOAT"
                    },
                    "strides": {
                        "list": {
                            "i": [
                                "1",
                                "1",
                                "1",
                                "1"
                            ]
                        }
                    },
                    "use_cudnn_on_gpu": {
                        "b": true
                    },
                    "num_args": {
                        "i": "1"
                    }
                }
            },
            {
                "name": "detector/yolo-v4-tiny/concat_9",
                "op": "ConcatV2",
                "input": [
                    "detector/yolo-v4-tiny/Conv_13/LeakyRelu",
                    "detector/yolo-v4-tiny/ResizeNearestNeighbor",
                    "detector/yolo-v4-tiny/concat_9/axis"
                ],
                "attr": {
                    "N": {
                        "i": "2"
                    },
                    "Tidx": {
                        "type": "DT_INT32"
                    },
                    "T": {
                        "type": "DT_FLOAT"
                    }
                }
            },
            {
                "name": "detector/yolo-v4-tiny/Reshape",
                "op": "Reshape",
                "input": [
                    "detector/yolo-v4-tiny/Conv_17/BiasAdd",
                    "detector/yolo-v4-tiny/Reshape/shape"
                ],
                "attr": {
                    "Tshape": {
                        "type": "DT_INT32"
                    },
                    "T": {
                        "type": "DT_FLOAT"
                    }
                }
            },
            {
                "name": "detector/yolo-v4-tiny/Conv_19/LeakyRelu",
                "op": "_FusedConv2D",
                "input": [
                    "detector/yolo-v4-tiny/concat_9",
                    "detector/yolo-v4-tiny/Conv_19/Conv2D_weights",
                    "detector/yolo-v4-tiny/Conv_19/Conv2D_bn_offset"
                ],
                "device": "/device:CPU:0",
                "attr": {
                    "dilations": {
                        "list": {
                            "i": [
                                "1",
                                "1",
                                "1",
                                "1"
                            ]
                        }
                    },
                    "data_format": {
                        "s": "TkhXQw=="
                    },
                    "strides": {
                        "list": {
                            "i": [
                                "1",
                                "1",
                                "1",
                                "1"
                            ]
                        }
                    },
                    "epsilon": {
                        "f": 0
                    },
                    "explicit_paddings": {
                        "list": {}
                    },
                    "T": {
                        "type": "DT_FLOAT"
                    },
                    "num_args": {
                        "i": "1"
                    },
                    "leakyrelu_alpha": {
                        "f": 0.1
                    },
                    "fused_ops": {
                        "list": {
                            "s": [
                                "Qmlhc0FkZA==",
                                "TGVha3lSZWx1"
                            ]
                        }
                    },
                    "use_cudnn_on_gpu": {
                        "b": true
                    },
                    "padding": {
                        "s": "U0FNRQ=="
                    }
                }
            },
            {
                "name": "detector/yolo-v4-tiny/split",
                "op": "SplitV",
                "input": [
                    "detector/yolo-v4-tiny/Reshape",
                    "detector/yolo-v4-tiny/Const",
                    "detector/yolo-v4-tiny/split/split_dim"
                ],
                "attr": {
                    "T": {
                        "type": "DT_FLOAT"
                    },
                    "Tlen": {
                        "type": "DT_INT32"
                    },
                    "num_split": {
                        "i": "4"
                    }
                }
            },
            {
                "name": "detector/yolo-v4-tiny/Conv_20/BiasAdd",
                "op": "_FusedConv2D",
                "input": [
                    "detector/yolo-v4-tiny/Conv_19/LeakyRelu",
                    "detector/yolo-v4-tiny/Conv_20/weights",
                    "detector/yolo-v4-tiny/Conv_20/biases"
                ],
                "device": "/device:CPU:0",
                "attr": {
                    "fused_ops": {
                        "list": {
                            "s": [
                                "Qmlhc0FkZA=="
                            ]
                        }
                    },
                    "use_cudnn_on_gpu": {
                        "b": true
                    },
                    "data_format": {
                        "s": "TkhXQw=="
                    },
                    "T": {
                        "type": "DT_FLOAT"
                    },
                    "explicit_paddings": {
                        "list": {}
                    },
                    "padding": {
                        "s": "U0FNRQ=="
                    },
                    "epsilon": {
                        "f": 0
                    },
                    "num_args": {
                        "i": "1"
                    },
                    "strides": {
                        "list": {
                            "i": [
                                "1",
                                "1",
                                "1",
                                "1"
                            ]
                        }
                    },
                    "dilations": {
                        "list": {
                            "i": [
                                "1",
                                "1",
                                "1",
                                "1"
                            ]
                        }
                    }
                }
            },
            {
                "name": "detector/yolo-v4-tiny/Sigmoid",
                "op": "Sigmoid",
                "input": [
                    "detector/yolo-v4-tiny/split"
                ],
                "attr": {
                    "T": {
                        "type": "DT_FLOAT"
                    }
                }
            },
            {
                "name": "detector/yolo-v4-tiny/Exp",
                "op": "Exp",
                "input": [
                    "detector/yolo-v4-tiny/split:1"
                ],
                "attr": {
                    "T": {
                        "type": "DT_FLOAT"
                    }
                }
            },
            {
                "name": "detector/yolo-v4-tiny/Sigmoid_1",
                "op": "Sigmoid",
                "input": [
                    "detector/yolo-v4-tiny/split:2"
                ],
                "attr": {
                    "T": {
                        "type": "DT_FLOAT"
                    }
                }
            },
            {
                "name": "detector/yolo-v4-tiny/Sigmoid_2",
                "op": "Sigmoid",
                "input": [
                    "detector/yolo-v4-tiny/split:3"
                ],
                "attr": {
                    "T": {
                        "type": "DT_FLOAT"
                    }
                }
            },
            {
                "name": "detector/yolo-v4-tiny/Reshape_4",
                "op": "Reshape",
                "input": [
                    "detector/yolo-v4-tiny/Conv_20/BiasAdd",
                    "detector/yolo-v4-tiny/Reshape_4/shape"
                ],
                "attr": {
                    "T": {
                        "type": "DT_FLOAT"
                    },
                    "Tshape": {
                        "type": "DT_INT32"
                    }
                }
            },
            {
                "name": "detector/yolo-v4-tiny/add",
                "op": "AddV2",
                "input": [
                    "detector/yolo-v4-tiny/Sigmoid",
                    "detector/yolo-v4-tiny/Reshape_3"
                ],
                "attr": {
                    "T": {
                        "type": "DT_FLOAT"
                    }
                }
            },
            {
                "name": "detector/yolo-v4-tiny/mul_2",
                "op": "Mul",
                "input": [
                    "detector/yolo-v4-tiny/Exp",
                    "detector/yolo-v4-tiny/mul_1"
                ],
                "attr": {
                    "T": {
                        "type": "DT_FLOAT"
                    }
                }
            },
            {
                "name": "detector/yolo-v4-tiny/split_1",
                "op": "SplitV",
                "input": [
                    "detector/yolo-v4-tiny/Reshape_4",
                    "detector/yolo-v4-tiny/Const_1",
                    "detector/yolo-v4-tiny/split_1/split_dim"
                ],
                "attr": {
                    "Tlen": {
                        "type": "DT_INT32"
                    },
                    "T": {
                        "type": "DT_FLOAT"
                    },
                    "num_split": {
                        "i": "4"
                    }
                }
            },
            {
                "name": "detector/yolo-v4-tiny/mul",
                "op": "Mul",
                "input": [
                    "detector/yolo-v4-tiny/add",
                    "detector/yolo-v4-tiny/mul/y"
                ],
                "attr": {
                    "T": {
                        "type": "DT_FLOAT"
                    }
                }
            },
            {
                "name": "detector/yolo-v4-tiny/Sigmoid_3",
                "op": "Sigmoid",
                "input": [
                    "detector/yolo-v4-tiny/split_1"
                ],
                "attr": {
                    "T": {
                        "type": "DT_FLOAT"
                    }
                }
            },
            {
                "name": "detector/yolo-v4-tiny/Exp_1",
                "op": "Exp",
                "input": [
                    "detector/yolo-v4-tiny/split_1:1"
                ],
                "attr": {
                    "T": {
                        "type": "DT_FLOAT"
                    }
                }
            },
            {
                "name": "detector/yolo-v4-tiny/Sigmoid_4",
                "op": "Sigmoid",
                "input": [
                    "detector/yolo-v4-tiny/split_1:2"
                ],
                "attr": {
                    "T": {
                        "type": "DT_FLOAT"
                    }
                }
            },
            {
                "name": "detector/yolo-v4-tiny/Sigmoid_5",
                "op": "Sigmoid",
                "input": [
                    "detector/yolo-v4-tiny/split_1:3"
                ],
                "attr": {
                    "T": {
                        "type": "DT_FLOAT"
                    }
                }
            },
            {
                "name": "detector/yolo-v4-tiny/concat_8",
                "op": "ConcatV2",
                "input": [
                    "detector/yolo-v4-tiny/mul",
                    "detector/yolo-v4-tiny/mul_2",
                    "detector/yolo-v4-tiny/Sigmoid_1",
                    "detector/yolo-v4-tiny/Sigmoid_2",
                    "detector/yolo-v4-tiny/concat_8/axis"
                ],
                "attr": {
                    "T": {
                        "type": "DT_FLOAT"
                    },
                    "Tidx": {
                        "type": "DT_INT32"
                    },
                    "N": {
                        "i": "4"
                    }
                }
            },
            {
                "name": "detector/yolo-v4-tiny/add_1",
                "op": "AddV2",
                "input": [
                    "detector/yolo-v4-tiny/Sigmoid_3",
                    "detector/yolo-v4-tiny/Reshape_7"
                ],
                "attr": {
                    "T": {
                        "type": "DT_FLOAT"
                    }
                }
            },
            {
                "name": "detector/yolo-v4-tiny/mul_5",
                "op": "Mul",
                "input": [
                    "detector/yolo-v4-tiny/Exp_1",
                    "detector/yolo-v4-tiny/mul_4"
                ],
                "attr": {
                    "T": {
                        "type": "DT_FLOAT"
                    }
                }
            },
            {
                "name": "detector/yolo-v4-tiny/mul_3",
                "op": "Mul",
                "input": [
                    "detector/yolo-v4-tiny/add_1",
                    "detector/yolo-v4-tiny/mul_3/y"
                ],
                "attr": {
                    "T": {
                        "type": "DT_FLOAT"
                    }
                }
            },
            {
                "name": "detector/yolo-v4-tiny/concat_12",
                "op": "ConcatV2",
                "input": [
                    "detector/yolo-v4-tiny/mul_3",
                    "detector/yolo-v4-tiny/mul_5",
                    "detector/yolo-v4-tiny/Sigmoid_4",
                    "detector/yolo-v4-tiny/Sigmoid_5",
                    "detector/yolo-v4-tiny/concat_12/axis"
                ],
                "attr": {
                    "N": {
                        "i": "4"
                    },
                    "Tidx": {
                        "type": "DT_INT32"
                    },
                    "T": {
                        "type": "DT_FLOAT"
                    }
                }
            },
            {
                "name": "detector/yolo-v4-tiny/concat_13",
                "op": "ConcatV2",
                "input": [
                    "detector/yolo-v4-tiny/concat_8",
                    "detector/yolo-v4-tiny/concat_12",
                    "detector/yolo-v4-tiny/concat_13/axis"
                ],
                "attr": {
                    "T": {
                        "type": "DT_FLOAT"
                    },
                    "N": {
                        "i": "2"
                    },
                    "Tidx": {
                        "type": "DT_INT32"
                    }
                }
            },
            {
                "name": "split",
                "op": "SplitV",
                "input": [
                    "detector/yolo-v4-tiny/concat_13",
                    "Const",
                    "split/split_dim"
                ],
                "attr": {
                    "num_split": {
                        "i": "5"
                    },
                    "Tlen": {
                        "type": "DT_INT32"
                    },
                    "T": {
                        "type": "DT_FLOAT"
                    }
                }
            },
            {
                "name": "truediv",
                "op": "Mul",
                "input": [
                    "split:2",
                    "ConstantFolding/truediv_recip"
                ],
                "attr": {
                    "T": {
                        "type": "DT_FLOAT"
                    }
                }
            },
            {
                "name": "truediv_1",
                "op": "Mul",
                "input": [
                    "split:3",
                    "ConstantFolding/truediv_1_recip"
                ],
                "attr": {
                    "T": {
                        "type": "DT_FLOAT"
                    }
                }
            },
            {
                "name": "add",
                "op": "AddV2",
                "input": [
                    "split",
                    "truediv"
                ],
                "attr": {
                    "T": {
                        "type": "DT_FLOAT"
                    }
                }
            },
            {
                "name": "sub",
                "op": "Sub",
                "input": [
                    "split",
                    "truediv"
                ],
                "attr": {
                    "T": {
                        "type": "DT_FLOAT"
                    }
                }
            },
            {
                "name": "sub_1",
                "op": "Sub",
                "input": [
                    "split:1",
                    "truediv_1"
                ],
                "attr": {
                    "T": {
                        "type": "DT_FLOAT"
                    }
                }
            },
            {
                "name": "add_1",
                "op": "AddV2",
                "input": [
                    "split:1",
                    "truediv_1"
                ],
                "attr": {
                    "T": {
                        "type": "DT_FLOAT"
                    }
                }
            },
            {
                "name": "output_boxes",
                "op": "ConcatV2",
                "input": [
                    "sub",
                    "sub_1",
                    "add",
                    "add_1",
                    "split:4",
                    "output_boxes/axis"
                ],
                "attr": {
                    "T": {
                        "type": "DT_FLOAT"
                    },
                    "Tidx": {
                        "type": "DT_INT32"
                    },
                    "N": {
                        "i": "5"
                    }
                }
            }
        ],
        "library": {},
        "versions": {}
    },
    "weightsManifest": [
        {
            "paths": [
                "group1-shard1of6.bin",
                "group1-shard2of6.bin",
                "group1-shard3of6.bin",
                "group1-shard4of6.bin",
                "group1-shard5of6.bin",
                "group1-shard6of6.bin"
            ],
            "weights": [
                {
                    "name": "ConstantFolding/truediv_recip",
                    "shape": [],
                    "dtype": "float32"
                },
                {
                    "name": "ConstantFolding/truediv_1_recip",
                    "shape": [],
                    "dtype": "float32"
                },
                {
                    "name": "detector/yolo-v4-tiny/Reshape_3",
                    "shape": [
                        1,
                        507,
                        2
                    ],
                    "dtype": "float32"
                },
                {
                    "name": "detector/yolo-v4-tiny/mul/y",
                    "shape": [
                        2
                    ],
                    "dtype": "float32"
                },
                {
                    "name": "detector/yolo-v4-tiny/mul_1",
                    "shape": [
                        507,
                        2
                    ],
                    "dtype": "float32"
                },
                {
                    "name": "detector/yolo-v4-tiny/Conv_17/weights",
                    "shape": [
                        1,
                        1,
                        512,
                        30
                    ],
                    "dtype": "float32"
                },
                {
                    "name": "detector/yolo-v4-tiny/Conv_17/biases",
                    "shape": [
                        30
                    ],
                    "dtype": "float32"
                },
                {
                    "name": "detector/yolo-v4-tiny/Reshape/shape",
                    "shape": [
                        3
                    ],
                    "dtype": "int32"
                },
                {
                    "name": "detector/yolo-v4-tiny/Const",
                    "shape": [
                        4
                    ],
                    "dtype": "int32"
                },
                {
                    "name": "detector/yolo-v4-tiny/split/split_dim",
                    "shape": [],
                    "dtype": "int32"
                },
                {
                    "name": "detector/yolo-v4-tiny/concat_8/axis",
                    "shape": [],
                    "dtype": "int32"
                },
                {
                    "name": "detector/yolo-v4-tiny/Reshape_7",
                    "shape": [
                        1,
                        2028,
                        2
                    ],
                    "dtype": "float32"
                },
                {
                    "name": "detector/yolo-v4-tiny/mul_3/y",
                    "shape": [
                        2
                    ],
                    "dtype": "float32"
                },
                {
                    "name": "detector/yolo-v4-tiny/mul_4",
                    "shape": [
                        2028,
                        2
                    ],
                    "dtype": "float32"
                },
                {
                    "name": "ConstantFolding/detector/truediv_recip",
                    "shape": [],
                    "dtype": "float32"
                },
                {
                    "name": "detector/yolo-v4-tiny/Pad/paddings",
                    "shape": [
                        4,
                        2
                    ],
                    "dtype": "int32"
                },
                {
                    "name": "detector/yolo-v4-tiny/Pad_1/paddings",
                    "shape": [
                        4,
                        2
                    ],
                    "dtype": "int32"
                },
                {
                    "name": "detector/yolo-v4-tiny/strided_slice/stack",
                    "shape": [
                        4
                    ],
                    "dtype": "int32"
                },
                {
                    "name": "detector/yolo-v4-tiny/strided_slice/stack_1",
                    "shape": [
                        4
                    ],
                    "dtype": "int32"
                },
                {
                    "name": "detector/yolo-v4-tiny/strided_slice/stack_2",
                    "shape": [
                        4
                    ],
                    "dtype": "int32"
                },
                {
                    "name": "detector/yolo-v4-tiny/concat/axis",
                    "shape": [],
                    "dtype": "int32"
                },
                {
                    "name": "detector/yolo-v4-tiny/concat_1/axis",
                    "shape": [],
                    "dtype": "int32"
                },
                {
                    "name": "detector/yolo-v4-tiny/strided_slice_1/stack",
                    "shape": [
                        4
                    ],
                    "dtype": "int32"
                },
                {
                    "name": "detector/yolo-v4-tiny/strided_slice_1/stack_1",
                    "shape": [
                        4
                    ],
                    "dtype": "int32"
                },
                {
                    "name": "detector/yolo-v4-tiny/strided_slice_1/stack_2",
                    "shape": [
                        4
                    ],
                    "dtype": "int32"
                },
                {
                    "name": "detector/yolo-v4-tiny/concat_2/axis",
                    "shape": [],
                    "dtype": "int32"
                },
                {
                    "name": "detector/yolo-v4-tiny/concat_3/axis",
                    "shape": [],
                    "dtype": "int32"
                },
                {
                    "name": "detector/yolo-v4-tiny/strided_slice_2/stack",
                    "shape": [
                        4
                    ],
                    "dtype": "int32"
                },
                {
                    "name": "detector/yolo-v4-tiny/strided_slice_2/stack_1",
                    "shape": [
                        4
                    ],
                    "dtype": "int32"
                },
                {
                    "name": "detector/yolo-v4-tiny/strided_slice_2/stack_2",
                    "shape": [
                        4
                    ],
                    "dtype": "int32"
                },
                {
                    "name": "detector/yolo-v4-tiny/concat_4/axis",
                    "shape": [],
                    "dtype": "int32"
                },
                {
                    "name": "detector/yolo-v4-tiny/concat_5/axis",
                    "shape": [],
                    "dtype": "int32"
                },
                {
                    "name": "detector/yolo-v4-tiny/ResizeNearestNeighbor/size",
                    "shape": [
                        2
                    ],
                    "dtype": "int32"
                },
                {
                    "name": "detector/yolo-v4-tiny/concat_9/axis",
                    "shape": [],
                    "dtype": "int32"
                },
                {
                    "name": "detector/yolo-v4-tiny/Conv_20/weights",
                    "shape": [
                        1,
                        1,
                        256,
                        30
                    ],
                    "dtype": "float32"
                },
                {
                    "name": "detector/yolo-v4-tiny/Conv_20/biases",
                    "shape": [
                        30
                    ],
                    "dtype": "float32"
                },
                {
                    "name": "detector/yolo-v4-tiny/Reshape_4/shape",
                    "shape": [
                        3
                    ],
                    "dtype": "int32"
                },
                {
                    "name": "detector/yolo-v4-tiny/Const_1",
                    "shape": [
                        4
                    ],
                    "dtype": "int32"
                },
                {
                    "name": "detector/yolo-v4-tiny/split_1/split_dim",
                    "shape": [],
                    "dtype": "int32"
                },
                {
                    "name": "detector/yolo-v4-tiny/concat_12/axis",
                    "shape": [],
                    "dtype": "int32"
                },
                {
                    "name": "detector/yolo-v4-tiny/concat_13/axis",
                    "shape": [],
                    "dtype": "int32"
                },
                {
                    "name": "Const",
                    "shape": [
                        5
                    ],
                    "dtype": "int32"
                },
                {
                    "name": "split/split_dim",
                    "shape": [],
                    "dtype": "int32"
                },
                {
                    "name": "output_boxes/axis",
                    "shape": [],
                    "dtype": "int32"
                },
                {
                    "name": "detector/yolo-v4-tiny/Conv/Conv2D_weights",
                    "shape": [
                        3,
                        3,
                        3,
                        32
                    ],
                    "dtype": "float32"
                },
                {
                    "name": "detector/yolo-v4-tiny/Conv/Conv2D_bn_offset",
                    "shape": [
                        32
                    ],
                    "dtype": "float32"
                },
                {
                    "name": "detector/yolo-v4-tiny/Conv_1/Conv2D_weights",
                    "shape": [
                        3,
                        3,
                        32,
                        64
                    ],
                    "dtype": "float32"
                },
                {
                    "name": "detector/yolo-v4-tiny/Conv_1/Conv2D_bn_offset",
                    "shape": [
                        64
                    ],
                    "dtype": "float32"
                },
                {
                    "name": "detector/yolo-v4-tiny/Conv_2/Conv2D_weights",
                    "shape": [
                        3,
                        3,
                        64,
                        64
                    ],
                    "dtype": "float32"
                },
                {
                    "name": "detector/yolo-v4-tiny/Conv_2/Conv2D_bn_offset",
                    "shape": [
                        64
                    ],
                    "dtype": "float32"
                },
                {
                    "name": "detector/yolo-v4-tiny/Conv_3/Conv2D_weights",
                    "shape": [
                        3,
                        3,
                        32,
                        32
                    ],
                    "dtype": "float32"
                },
                {
                    "name": "detector/yolo-v4-tiny/Conv_3/Conv2D_bn_offset",
                    "shape": [
                        32
                    ],
                    "dtype": "float32"
                },
                {
                    "name": "detector/yolo-v4-tiny/Conv_18/Conv2D_weights",
                    "shape": [
                        1,
                        1,
                        256,
                        128
                    ],
                    "dtype": "float32"
                },
                {
                    "name": "detector/yolo-v4-tiny/Conv_4/Conv2D_weights",
                    "shape": [
                        3,
                        3,
                        32,
                        32
                    ],
                    "dtype": "float32"
                },
                {
                    "name": "detector/yolo-v4-tiny/Conv_4/Conv2D_bn_offset",
                    "shape": [
                        32
                    ],
                    "dtype": "float32"
                },
                {
                    "name": "detector/yolo-v4-tiny/Conv_18/Conv2D_bn_offset",
                    "shape": [
                        128
                    ],
                    "dtype": "float32"
                },
                {
                    "name": "detector/yolo-v4-tiny/Conv_5/Conv2D_weights",
                    "shape": [
                        1,
                        1,
                        64,
                        64
                    ],
                    "dtype": "float32"
                },
                {
                    "name": "detector/yolo-v4-tiny/Conv_5/Conv2D_bn_offset",
                    "shape": [
                        64
                    ],
                    "dtype": "float32"
                },
                {
                    "name": "detector/yolo-v4-tiny/Conv_6/Conv2D_weights",
                    "shape": [
                        3,
                        3,
                        128,
                        128
                    ],
                    "dtype": "float32"
                },
                {
                    "name": "detector/yolo-v4-tiny/Conv_6/Conv2D_bn_offset",
                    "shape": [
                        128
                    ],
                    "dtype": "float32"
                },
                {
                    "name": "detector/yolo-v4-tiny/Conv_7/Conv2D_weights",
                    "shape": [
                        3,
                        3,
                        64,
                        64
                    ],
                    "dtype": "float32"
                },
                {
                    "name": "detector/yolo-v4-tiny/Conv_19/Conv2D_weights",
                    "shape": [
                        3,
                        3,
                        384,
                        256
                    ],
                    "dtype": "float32"
                },
                {
                    "name": "detector/yolo-v4-tiny/Conv_7/Conv2D_bn_offset",
                    "shape": [
                        64
                    ],
                    "dtype": "float32"
                },
                {
                    "name": "detector/yolo-v4-tiny/Conv_8/Conv2D_weights",
                    "shape": [
                        3,
                        3,
                        64,
                        64
                    ],
                    "dtype": "float32"
                },
                {
                    "name": "detector/yolo-v4-tiny/Conv_19/Conv2D_bn_offset",
                    "shape": [
                        256
                    ],
                    "dtype": "float32"
                },
                {
                    "name": "detector/yolo-v4-tiny/Conv_8/Conv2D_bn_offset",
                    "shape": [
                        64
                    ],
                    "dtype": "float32"
                },
                {
                    "name": "detector/yolo-v4-tiny/Conv_9/Conv2D_weights",
                    "shape": [
                        1,
                        1,
                        128,
                        128
                    ],
                    "dtype": "float32"
                },
                {
                    "name": "detector/yolo-v4-tiny/Conv_9/Conv2D_bn_offset",
                    "shape": [
                        128
                    ],
                    "dtype": "float32"
                },
                {
                    "name": "detector/yolo-v4-tiny/Conv_10/Conv2D_weights",
                    "shape": [
                        3,
                        3,
                        256,
                        256
                    ],
                    "dtype": "float32"
                },
                {
                    "name": "detector/yolo-v4-tiny/Conv_10/Conv2D_bn_offset",
                    "shape": [
                        256
                    ],
                    "dtype": "float32"
                },
                {
                    "name": "detector/yolo-v4-tiny/Conv_11/Conv2D_weights",
                    "shape": [
                        3,
                        3,
                        128,
                        128
                    ],
                    "dtype": "float32"
                },
                {
                    "name": "detector/yolo-v4-tiny/Conv_11/Conv2D_bn_offset",
                    "shape": [
                        128
                    ],
                    "dtype": "float32"
                },
                {
                    "name": "detector/yolo-v4-tiny/Conv_12/Conv2D_weights",
                    "shape": [
                        3,
                        3,
                        128,
                        128
                    ],
                    "dtype": "float32"
                },
                {
                    "name": "detector/yolo-v4-tiny/Conv_12/Conv2D_bn_offset",
                    "shape": [
                        128
                    ],
                    "dtype": "float32"
                },
                {
                    "name": "detector/yolo-v4-tiny/Conv_13/Conv2D_weights",
                    "shape": [
                        1,
                        1,
                        256,
                        256
                    ],
                    "dtype": "float32"
                },
                {
                    "name": "detector/yolo-v4-tiny/Conv_13/Conv2D_bn_offset",
                    "shape": [
                        256
                    ],
                    "dtype": "float32"
                },
                {
                    "name": "detector/yolo-v4-tiny/Conv_14/Conv2D_weights",
                    "shape": [
                        3,
                        3,
                        512,
                        512
                    ],
                    "dtype": "float32"
                },
                {
                    "name": "detector/yolo-v4-tiny/Conv_14/Conv2D_bn_offset",
                    "shape": [
                        512
                    ],
                    "dtype": "float32"
                },
                {
                    "name": "detector/yolo-v4-tiny/Conv_15/Conv2D_weights",
                    "shape": [
                        1,
                        1,
                        512,
                        256
                    ],
                    "dtype": "float32"
                },
                {
                    "name": "detector/yolo-v4-tiny/Conv_15/Conv2D_bn_offset",
                    "shape": [
                        256
                    ],
                    "dtype": "float32"
                },
                {
                    "name": "detector/yolo-v4-tiny/Conv_16/Conv2D_weights",
                    "shape": [
                        3,
                        3,
                        256,
                        512
                    ],
                    "dtype": "float32"
                },
                {
                    "name": "detector/yolo-v4-tiny/Conv_16/Conv2D_bn_offset",
                    "shape": [
                        512
                    ],
                    "dtype": "float32"
                }
            ]
        }
    ]
}